Start training...
Could not tabulate model: summary() got an unexpected keyword argument 'input_data'
Initialized model, optimizer, and train state
Initialized data samplers
Start training...
===================================================================================================================
Layer (type:depth-idx)                   Input Shape               Output Shape              Param #
===================================================================================================================
Transformer                              [256, 82]                 [256, 82, 16]             --
├─Embedding: 1-1                         [256, 82]                 [256, 82, 64]             1,024
├─ModuleList: 1-2                        --                        --                        --
│    └─TFBlock: 2-1                      [256, 82, 64]             [256, 82, 64]             --
│    │    └─Identity: 3-1                [256, 82, 64]             [256, 82, 64]             --
│    │    └─MultiHeadAttention: 3-2      [256, 82, 64]             [256, 82, 64]             16,384
│    └─TFBlock: 2-2                      [256, 82, 64]             [256, 82, 64]             --
│    │    └─Identity: 3-3                [256, 82, 64]             [256, 82, 64]             --
│    │    └─MultiHeadAttention: 3-4      [256, 82, 64]             [256, 82, 64]             16,384
│    │    └─Identity: 3-5                [256, 82, 64]             [256, 82, 64]             --
│    │    └─Sequential: 3-6              [256, 82, 64]             [256, 82, 64]             16,576
├─Linear: 1-3                            [256, 82, 64]             [256, 82, 16]             1,040
===================================================================================================================
Total params: 51,408
Trainable params: 51,408
Non-trainable params: 0
Total mult-adds (Units.MEGABYTES): 13.16
===================================================================================================================
Input size (MB): 0.17
Forward/backward pass size (MB): 131.66
…
