Start training...
Training complete.
Results are saved in:  results\train_355350d4725ccf4631380f57460e4cf1
===================================================================================================================
Layer (type:depth-idx)                   Input Shape               Output Shape              Param #
===================================================================================================================
Transformer                              [256, 82]                 [256, 82, 16]             --
├─Embedding: 1-1                         [256, 82]                 [256, 82, 64]             1,024
├─ModuleList: 1-2                        --                        --                        --
│    └─TFBlock: 2-1                      [256, 82, 64]             [256, 82, 64]             --
│    │    └─LayerNorm: 3-1               [256, 82, 64]             [256, 82, 64]             128
│    │    └─MultiHeadAttention: 3-2      [256, 82, 64]             [256, 82, 64]             16,384
│    │    └─Dropout: 3-3                 [256, 82, 64]             [256, 82, 64]             --
│    │    └─LayerNorm: 3-4               [256, 82, 64]             [256, 82, 64]             128
│    │    └─Sequential: 3-5              [256, 82, 64]             [256, 82, 64]             33,088
│    │    └─Dropout: 3-6                 [256, 82, 64]             [256, 82, 64]             --
│    └─TFBlock: 2-2                      [256, 82, 64]             [256, 82, 64]             --
│    │    └─LayerNorm: 3-7               [256, 82, 64]             [256, 82, 64]             128
│    │    └─MultiHeadAttention: 3-8      [256, 82, 64]             [256, 82, 64]             16,384
│    │    └─Dropout: 3-9                 [256, 82, 64]             [256, 82, 64]             --
│    │    └─LayerNorm: 3-10              [256, 82, 64]             [256, 82, 64]             128
│    │    └─Sequential: 3-11             [256, 82, 64]             [256, 82, 64]             33,088
│    │    └─Dropout: 3-12                [256, 82, 64]             [256, 82, 64]             --
│    └─TFBlock: 2-3                      [256, 82, 64]             [256, 82, 64]             --
│    │    └─LayerNorm: 3-13              [256, 82, 64]             [256, 82, 64]             128
│    │    └─MultiHeadAttention: 3-14     [256, 82, 64]             [256, 82, 64]             16,384
│    │    └─Dropout: 3-15                [256, 82, 64]             [256, 82, 64]             --
│    │    └─LayerNorm: 3-16              [256, 82, 64]             [256, 82, 64]             128
│    │    └─Sequential: 3-17             [256, 82, 64]             [256, 82, 64]             33,088
│    │    └─Dropout: 3-18                [256, 82, 64]             [256, 82, 64]             --
├─Linear: 1-3                            [256, 82, 64]             [256, 82, 16]             1,040
===================================================================================================================
Total params: 151,248
Trainable params: 151,248
Non-trainable params: 0
Total mult-adds (Units.MEGABYTES): 38.72
===================================================================================================================
Input size (MB): 0.17
Forward/backward pass size (MB): 368.12
…
