Start training...
Results are saved in:  results\train_5f8c8f445092244069b395c602f18882
===================================================================================================================
Layer (type:depth-idx)                   Input Shape               Output Shape              Param #
===================================================================================================================
Transformer                              [32, 82]                  [32, 82, 16]              --
├─Embedding: 1-1                         [32, 82]                  [32, 82, 64]              1,024
├─ModuleList: 1-2                        --                        --                        --
│    └─TFBlock: 2-1                      [32, 82, 64]              [32, 82, 64]              --
│    │    └─LayerNorm: 3-1               [32, 82, 64]              [32, 82, 64]              128
│    │    └─MultiHeadAttention: 3-2      [32, 82, 64]              [32, 82, 64]              16,384
│    │    └─Dropout: 3-3                 [32, 82, 64]              [32, 82, 64]              --
│    │    └─LayerNorm: 3-4               [32, 82, 64]              [32, 82, 64]              128
│    │    └─Sequential: 3-5              [32, 82, 64]              [32, 82, 64]              33,088
│    │    └─Dropout: 3-6                 [32, 82, 64]              [32, 82, 64]              --
│    └─TFBlock: 2-2                      [32, 82, 64]              [32, 82, 64]              --
│    │    └─LayerNorm: 3-7               [32, 82, 64]              [32, 82, 64]              128
│    │    └─MultiHeadAttention: 3-8      [32, 82, 64]              [32, 82, 64]              16,384
│    │    └─Dropout: 3-9                 [32, 82, 64]              [32, 82, 64]              --
│    │    └─LayerNorm: 3-10              [32, 82, 64]              [32, 82, 64]              128
│    │    └─Sequential: 3-11             [32, 82, 64]              [32, 82, 64]              33,088
│    │    └─Dropout: 3-12                [32, 82, 64]              [32, 82, 64]              --
│    └─TFBlock: 2-3                      [32, 82, 64]              [32, 82, 64]              --
│    │    └─LayerNorm: 3-13              [32, 82, 64]              [32, 82, 64]              128
│    │    └─MultiHeadAttention: 3-14     [32, 82, 64]              [32, 82, 64]              16,384
│    │    └─Dropout: 3-15                [32, 82, 64]              [32, 82, 64]              --
│    │    └─LayerNorm: 3-16              [32, 82, 64]              [32, 82, 64]              128
│    │    └─Sequential: 3-17             [32, 82, 64]              [32, 82, 64]              33,088
│    │    └─Dropout: 3-18                [32, 82, 64]              [32, 82, 64]              --
├─Linear: 1-3                            [32, 82, 64]              [32, 82, 16]              1,040
===================================================================================================================
Total params: 151,248
Trainable params: 151,248
Non-trainable params: 0
Total mult-adds (Units.MEGABYTES): 4.84
===================================================================================================================
Input size (MB): 0.02
Forward/backward pass size (MB): 46.01
…
