Start training...
Training complete.
Results are saved in:  results\train_ce061a48f6fd9effcce2938ba56310f2
===================================================================================================================
Layer (type:depth-idx)                   Input Shape               Output Shape              Param #
===================================================================================================================
Transformer                              [128, 82]                 [128, 82, 16]             --
├─Embedding: 1-1                         [128, 82]                 [128, 82, 32]             512
├─ModuleList: 1-2                        --                        --                        --
│    └─TFBlock: 2-1                      [128, 82, 32]             [128, 82, 32]             --
│    │    └─LayerNorm: 3-1               [128, 82, 32]             [128, 82, 32]             64
│    │    └─MultiHeadAttention: 3-2      [128, 82, 32]             [128, 82, 32]             4,096
│    │    └─Dropout: 3-3                 [128, 82, 32]             [128, 82, 32]             --
│    │    └─LayerNorm: 3-4               [128, 82, 32]             [128, 82, 32]             64
│    │    └─Sequential: 3-5              [128, 82, 32]             [128, 82, 32]             8,352
│    │    └─Dropout: 3-6                 [128, 82, 32]             [128, 82, 32]             --
│    └─TFBlock: 2-2                      [128, 82, 32]             [128, 82, 32]             --
│    │    └─LayerNorm: 3-7               [128, 82, 32]             [128, 82, 32]             64
│    │    └─MultiHeadAttention: 3-8      [128, 82, 32]             [128, 82, 32]             4,096
│    │    └─Dropout: 3-9                 [128, 82, 32]             [128, 82, 32]             --
│    │    └─LayerNorm: 3-10              [128, 82, 32]             [128, 82, 32]             64
│    │    └─Sequential: 3-11             [128, 82, 32]             [128, 82, 32]             8,352
│    │    └─Dropout: 3-12                [128, 82, 32]             [128, 82, 32]             --
│    └─TFBlock: 2-3                      [128, 82, 32]             [128, 82, 32]             --
│    │    └─LayerNorm: 3-13              [128, 82, 32]             [128, 82, 32]             64
│    │    └─MultiHeadAttention: 3-14     [128, 82, 32]             [128, 82, 32]             4,096
│    │    └─Dropout: 3-15                [128, 82, 32]             [128, 82, 32]             --
│    │    └─LayerNorm: 3-16              [128, 82, 32]             [128, 82, 32]             64
│    │    └─Sequential: 3-17             [128, 82, 32]             [128, 82, 32]             8,352
│    │    └─Dropout: 3-18                [128, 82, 32]             [128, 82, 32]             --
├─Linear: 1-3                            [128, 82, 32]             [128, 82, 16]             528
===================================================================================================================
Total params: 38,768
Trainable params: 38,768
Non-trainable params: 0
Total mult-adds (Units.MEGABYTES): 4.96
===================================================================================================================
Input size (MB): 0.08
Forward/backward pass size (MB): 92.70
…
