Start training...
Results are saved in:  results\train_b6572dc3cb5043cd840d5326dbae96fe
===================================================================================================================
Layer (type:depth-idx)                   Input Shape               Output Shape              Param #
===================================================================================================================
Transformer                              [64, 82]                  [64, 82, 16]              --
├─Embedding: 1-1                         [64, 82]                  [64, 82, 64]              1,024
├─ModuleList: 1-2                        --                        --                        --
│    └─TFBlock: 2-1                      [64, 82, 64]              [64, 82, 64]              --
│    │    └─LayerNorm: 3-1               [64, 82, 64]              [64, 82, 64]              128
│    │    └─MultiHeadAttention: 3-2      [64, 82, 64]              [64, 82, 64]              16,384
│    │    └─Dropout: 3-3                 [64, 82, 64]              [64, 82, 64]              --
│    │    └─LayerNorm: 3-4               [64, 82, 64]              [64, 82, 64]              128
│    │    └─Sequential: 3-5              [64, 82, 64]              [64, 82, 64]              16,576
│    │    └─Dropout: 3-6                 [64, 82, 64]              [64, 82, 64]              --
│    └─TFBlock: 2-2                      [64, 82, 64]              [64, 82, 64]              --
│    │    └─LayerNorm: 3-7               [64, 82, 64]              [64, 82, 64]              128
│    │    └─MultiHeadAttention: 3-8      [64, 82, 64]              [64, 82, 64]              16,384
│    │    └─Dropout: 3-9                 [64, 82, 64]              [64, 82, 64]              --
│    │    └─LayerNorm: 3-10              [64, 82, 64]              [64, 82, 64]              128
│    │    └─Sequential: 3-11             [64, 82, 64]              [64, 82, 64]              16,576
│    │    └─Dropout: 3-12                [64, 82, 64]              [64, 82, 64]              --
│    └─TFBlock: 2-3                      [64, 82, 64]              [64, 82, 64]              --
│    │    └─LayerNorm: 3-13              [64, 82, 64]              [64, 82, 64]              128
│    │    └─MultiHeadAttention: 3-14     [64, 82, 64]              [64, 82, 64]              16,384
│    │    └─Dropout: 3-15                [64, 82, 64]              [64, 82, 64]              --
│    │    └─LayerNorm: 3-16              [64, 82, 64]              [64, 82, 64]              128
│    │    └─Sequential: 3-17             [64, 82, 64]              [64, 82, 64]              16,576
│    │    └─Dropout: 3-18                [64, 82, 64]              [64, 82, 64]              --
├─Linear: 1-3                            [64, 82, 64]              [64, 82, 16]              1,040
===================================================================================================================
Total params: 101,712
Trainable params: 101,712
Non-trainable params: 0
Total mult-adds (Units.MEGABYTES): 6.51
===================================================================================================================
Input size (MB): 0.04
Forward/backward pass size (MB): 75.91
…
