Start training...
Training complete.
Results are saved in:  results\train_bbfad07a08bd3de0de55daf02c6bd160
===================================================================================================================
Layer (type:depth-idx)                   Input Shape               Output Shape              Param #
===================================================================================================================
Transformer                              [128, 82]                 [128, 82, 16]             --
├─Embedding: 1-1                         [128, 82]                 [128, 82, 64]             1,024
├─ModuleList: 1-2                        --                        --                        --
│    └─TFBlock: 2-1                      [128, 82, 64]             [128, 82, 64]             --
│    │    └─LayerNorm: 3-1               [128, 82, 64]             [128, 82, 64]             128
│    │    └─MultiHeadAttention: 3-2      [128, 82, 64]             [128, 82, 64]             16,384
│    │    └─Dropout: 3-3                 [128, 82, 64]             [128, 82, 64]             --
│    │    └─LayerNorm: 3-4               [128, 82, 64]             [128, 82, 64]             128
│    │    └─Sequential: 3-5              [128, 82, 64]             [128, 82, 64]             33,088
│    │    └─Dropout: 3-6                 [128, 82, 64]             [128, 82, 64]             --
│    └─TFBlock: 2-2                      [128, 82, 64]             [128, 82, 64]             --
│    │    └─LayerNorm: 3-7               [128, 82, 64]             [128, 82, 64]             128
│    │    └─MultiHeadAttention: 3-8      [128, 82, 64]             [128, 82, 64]             16,384
│    │    └─Dropout: 3-9                 [128, 82, 64]             [128, 82, 64]             --
│    │    └─LayerNorm: 3-10              [128, 82, 64]             [128, 82, 64]             128
│    │    └─Sequential: 3-11             [128, 82, 64]             [128, 82, 64]             33,088
│    │    └─Dropout: 3-12                [128, 82, 64]             [128, 82, 64]             --
├─Linear: 1-3                            [128, 82, 64]             [128, 82, 16]             1,040
===================================================================================================================
Total params: 101,520
Trainable params: 101,520
Non-trainable params: 0
Total mult-adds (Units.MEGABYTES): 12.99
===================================================================================================================
Input size (MB): 0.08
Forward/backward pass size (MB): 124.94
…
